cybershield-platform-main/backend/ml_models/model_1.pth (torch, 888709 bytes, 10 tensors)

weight f4 [64, 3, 3, 3]
0.1732619 0.039058447 -0.12411065 0.065320134 -0.15043713 -0.110640004 -0.108107716 -0.020784523
-0.19264404 0.026500473 -0.11206438 0.035250828 0.18793274 0.1653023 -0.12985854 0.09769428
0.057173543 0.14415856 -0.08358643 0.072342545 0.03974155 -0.11677901 0.052706137 0.07255973
-0.027928783 0.19901815 -0.092001386 0.19233194 0.086550064 0.100671366 0.00808117 0.046787843
0.045943055 0.05446069 -0.15534724 0.19512425 0.15122116 -0.18877766 -0.08678985 0.07826166
-0.16804217 -0.18485332 0.13554807 0.16948937 -0.15633526 -0.12588479 -0.16991626 -0.011026641
-0.14044009 0.064164884 -0.19387953 0.13732249 0.15292604 -0.046312083 -0.101982 0.092930235
0.030480921 -0.06948659 -0.003125918 -0.20022696 -0.09111506 0.03125243 -0.10630805 0.13953425
0.15763378 0.1427125 -0.046444297 0.08585912 0.20658897 0.073988624 0.040182076 0.15523699
-0.057308763 -0.09357724 0.14988689 -0.17785367 -0.10130531 -0.18344016 0.110516645 -0.042302433
-0.12209682 -0.15985592 0.051854175 0.10117572 -0.06417117 0.093948826 -0.18616107 -0.030347107
0.08454653 -0.028111408 0.051513016 -0.0940903 -0.08188944 0.13562475 -0.051463585 0.1862929
0.09350306 0.17567845 -0.09175366 -0.10010827 -0.04559474 -0.042273168 0.0537834 0.04372171
-0.07527623 0.1359158 0.016142713 -0.18045764 0.1159856 0.12871274 0.08743101 -0.0035535155
0.14672628 -0.010481323 -0.09769432 0.12694697 0.046280835 -0.22699901 -0.2504271 -0.061559968
-0.17112963 -0.038054615 -0.07366443 -0.16236036 -0.009585213 -0.078910306 0.0010362564 -0.04303149
-0.1570408 0.21173444 -0.024128051 0.19701578 0.16729318 -0.025172919 0.003968723 0.06719835
-0.0080742715 -0.0833149 -0.16859965 -0.12806171 0.05989337 0.08209636 0.05182871 0.091071755
-0.113817394 -0.16388024 -0.06916508 -0.041940913 0.14077409 0.08470907 0.1681411 0.0134793045
0.04818944 -0.1131639 0.12743676 0.12143896 -0.030187253 -0.08028997 0.020529894 0.1817058
-0.1745888 0.15750787 0.07804121 -0.007393183 -0.10559597 -0.10210314 -0.18526384 -0.10894957
0.09540105 0.14640798 0.022478567 0.17898506 -0.06050268 -0.17527424 0.22648145 -0.034072097
-0.032759275 -0.064476684 0.17846449 0.13497934 0.06411043 0.002644919 -0.23102157 0.18876497
-0.14015931 -0.23388414 0.20256756 -0.112312 -0.07455485 0.00962036 -0.12153893 -0.19074225
0.11689845 -0.043837175 0.12489071 -0.08020118 -0.0179328 0.085847005 0.15101404 0.055545155
-0.039454605 0.06239697 -0.181205 0.13349877 0.13453388 0.054642238 0.01599169 -0.10827369
0.004446803 -0.0018917997 -0.07982874 0.065329365 0.17225154 0.042706225 0.09630842 -0.112339884
-0.071785994 0.16136445 0.032535292 0.14973922 0.028009066 -0.16344935 -0.13832687 0.12847626
0.12562712 -0.21118169 0.07382933 0.04157544 -0.105504245 0.096835755 -0.10212889 0.03970011
0.14022225 -0.17784858 -0.20919803 0.15397736 0.14279805 0.11526877 -0.039705034 -0.12189505
0.035216365 0.017564101 -0.0849565 0.014562133 0.0585218 0.118420556 0.14563043 0.12171368
0.03706813 0.040615167 0.05889343 0.053151898 0.119454324 0.17123264 0.0960104 -0.0838015
00000000: 916b 313e c0fb 1f3d b92d febd 90c6 853d
00000010: 310c 1abe 3a97 e2bd 9467 ddbd 4e44 aabc
00000020: 7b44 45be 8517 d93c 0282 e5bd 2c63 103d
00000030: 7171 403e 0245 293e a3f9 04be f013 c83d
00000040: ce2e 6a3d 4d9e 133e 5d2f abbd 5428 943d
00000050: 09c8 223d d529 efbd 64e2 573d 329a 943d
00000060: e7ca e4bc 6acb 4b3e 396b bcbd aaf2 443e
00000070: 2941 b13d ca2c ce3d e266 043c 9ca4 3f3d
00000080: c92e 3c3d 2c12 5f3d 5913 1fbe a7ce 473e
00000090: b8d9 1a3e ee4e 41be e0be b1bd a647 a03d
000000a0: 3f13 2cbe 304a 3dbe 1dcd 0a3e 9f8e 2d3e
000000b0: 5a16 20be f1e7 00be 87fe 2dbe 16a9 34bc
000000c0: 87cf 0fbe e168 833d 5b88 46be 449e 0c3e
000000d0: a598 1c3e bdb1 3dbd f0db d0bd 3552 be3d
000000e0: 20b3 f93c fc4e 8ebd 34dc 4cbb 4c08 4dbe
000000f0: 889a babd 8c02 003d 09b8 d9bd 11e2 0e3e
00000100: c06a 213e 3a23 123e 603c 3ebd e8d6 af3d
00000110: 0f8c 533e 5987 973d f695 243d 72f6 1e3e
00000120: 98bc 6abd 6da5 bfbd f37b 193e 461f 36be
00000130: 2979 cfbd bdd7 3bbe 8d56 e23d 5145 2dbd
00000140: e60d fabd 45b1 23be 0b65 543d 3735 cf3d
00000150: 2d6c 83bd 3e68 c03d 02a1 3ebe 7f9a f8bc
00000160: bb26 ad3d e549 e6bc 50ff 523d 6ab2 c0bd
00000170: a7b5 a7bd 37e1 0a3e 7bcb 52bd 91c3 3e3e
00000180: 887e bf3d 0de5 333e 58e9 bbbd 9105 cdbd
00000190: 8dc1 3abd a126 2dbd fc4b 5c3d 8915 333d
000001a0: 6d2a 9abd 832d 0b3e b93d 843c e3c9 38be
000001b0: dc89 ed3d 46cd 033e 080f b33d 19e2 68bb
000001c0: 6a3f 163e dbb9 2bbc f613 c8bd 63fe 013e
000001d0: f990 3d3d 6e72 68be fb37 80be 4e26 7cbd
000001e0: 9b3c 2fbe 28df 1bbd 60dd 96bd cb41 26be
000001f0: 4c0b 1dbc ba9b a1bd ffd2 873a ca41 30bd
00000200: 4ecf 20be ead0 583e 31a8 c5bc 81be 493e
00000210: e74e 2b3e 7037 cebc 100c 823b 4a9f 893d
00000220: f349 04bc 01a1 aabd 63a5 2cbe 9c22 03be
00000230: c052 753d 2322 a83d 574a 543d d483 ba3d
00000240: 1819 e9bd 39d0 27be 6ca6 8dbd 3cca 2bbd
00000250: 1527 103e f37b ad3d 2e2d 2c3e 4dd8 5c3c
00000260: 4a62 453d 7ac2 e7bd c87e 023e fdb4 f83d
00000270: 424b f7bc 116f a4bd 4f2e a83c 1611 3a3e
00000280: 68c7 32be be49 213e 12d4 9f3d 8442 f2bb
00000290: b342 d8bd 731b d1bd ceb5 3dbe f420 dfbd
000002a0: a061 c33d f9eb 153e f924 b83c dc47 373e
000002b0: a8d1 77bd 177b 33be c1ea 673e 2f8f 0bbd
000002c0: 972e 06bd 5a0c 84bd 65bf 363e 0638 0a3e
000002d0: 544c 833d 6156 2d3b eb90 6cbe 9b4b 413e
000002e0: ec85 0fbe 537f 6fbe df6d 4f3e d503 e6bd
000002f0: 37b0 98bd b79e 1d3c 67e9 f8bd f051 43be
00000300: 7468 ef3d 9c8e 33bd b3c6 ff3d 8440 a4bd
00000310: cfe7 92bc 8ed0 af3d 6da3 1a3e 5183 633d
00000320: 279b 21bd f793 7f3d ce8d 39be e7b3 083e
00000330: 40c3 093e 8ad0 5f3d 0101 833c 99be ddbd
00000340: 7db6 913b 44f6 f7ba 407d a3bd 67cb 853d
00000350: b562 303e b9ec 2e3d 593d c53d 7412 e6bd
00000360: 8904 93bd b93c 253e ba43 053d 3d55 193e
00000370: 4573 e53c 445f 27be 8fa5 0dbe 488f 033e
00000380: 65a4 003e 0340 58be d533 973d 024b 2a3d
00000390: 9c12 d8bd d351 c63d f428 d1bd 959c 223d
000003a0: 6c96 0f3e f01d 36be 0238 56be 3eac 1d3e
000003b0: a739 123e 0812 ec3d bfa1 22bd 1da4 f9bd
000003c0: 093f 103d 97e2 8f3c acfd adbd 0396 6e3c
000003d0: 8eb4 6f3d 7a86 f23d 2520 153e 0645 f93d
000003e0: c0d4 173d 175c 263d 3d3a 713d ceb5 593d
000003f0: 78a4 f43d 9c57 2f3e 1aa1 c43d 1fa0 abbd

bias f4 [64]
0.1962553 0.061549213 0.011979721 -0.098413825 -0.22176671 -0.028995119 -0.13007672 0.088782065
-0.17684716 -0.11361533 0.077354126 -0.1351634 0.13554952 -0.1086843 -0.192477 0.031887826
-0.117116235 0.092930995 -0.13207307 -0.13103119 0.15160653 0.09095261 -0.056515757 0.091123275
0.10727249 0.10025709 -0.17826246 0.15299305 0.0315259 0.13941401 0.12738478 -0.07429902
-0.053329855 0.110116154 -0.09254147 -0.10526746 -0.12403421 0.01618819 0.09111876 -0.19476143
-0.14124072 -0.042537097 -0.11439424 -0.15211661 -0.05777231 -0.043844223 -0.11313716 0.02604758
-0.03396846 -0.097729206 -0.023611395 -0.07228756 -0.08052853 -0.006161924 0.053033 0.04876451
-0.2123678 -0.13237645 0.030621164 -0.0732925 0.047321092 -0.097655855 -0.13545775 -0.14223294
00000000: 26f7 483e 071b 7c3d 9746 443c 308d c9bd
00000010: d016 63be 2c87 edbc d532 05be 5fd3 b53d
00000020: 6c17 35be 27af e8bd d76b 9e3d 4668 0abe
00000030: 7ecd 0a3e e095 debd b118 45be cf9c 023d
00000040: a3da efbd 9b52 be3d 2a3e 07be 0a2d 06be
00000050: be3e 1b3e 5d45 ba3d 117d 67bd d79e ba3d
00000060: aeb1 db3d 9753 cd3d 6f8a 36be 36aa 1c3e
00000070: 4d21 013d 8cc2 0e3e 2871 023e 162a 98bd
00000080: 6870 5abd 9484 e13d 6286 bdbd 7796 d7bd
00000090: a605 febd 189d 843c 799c ba3d 8a6f 47be
000000a0: 68a1 10be 613b 2ebd 8747 eabd 75c4 1bbe
000000b0: a8a2 6cbd 0096 33bd 75b4 e7bd bc61 d53c
000000c0: 8322 0bbd 4026 c8bd af6c c1bc 800b 94bd
000000d0: 24ec a4bd f7e9 c9bb 2239 593d 4bbd 473d
000000e0: f276 59be b18d 07be 3cd9 fa3c 611a 96bd
000000f0: c3d3 413d cbff c7bd 70b5 0abe 83a5 11be

weight f4 [64, 64, 3, 3]
0.023406753 0.010435241 0.02135309 -0.008305851 0.0030391687 -0.04807377 0.022758642 0.012163627
0.033689227 -0.041426815 -0.017723782 0.02395739 0.020941097 -0.021988468 -0.004412529 -0.032975752
0.0073877973 0.025175897 -0.012738079 -0.025681295 0.010646076 0.02789056 0.0389115 0.029955544
-0.038643215 -0.031994417 -0.013986017 -0.043684654 0.035510454 -0.019993758 0.02477378 0.0011757973
-0.033116292 0.021336513 0.024055736 0.020472217 -0.02701428 0.02642993 -0.03272365 -0.025058603
-0.024774503 0.014261528 -0.014595508 -0.028187018 -0.03360187 -0.031386536 0.008428169 -0.004435735
-0.039200347 0.026150843 -0.021321798 -0.030049924 -0.035126917 0.00577596 0.019665912 -0.016393796
0.007977276 -0.00019372038 0.019100433 0.0025899005 0.03468414 -0.008617044 -0.0054881736 -0.048710465
0.010718465 0.020313684 0.01498631 -0.039747674 -0.0056791464 -0.016499221 -0.0033111894 -0.040215865
-0.015375268 -0.00224802 -0.0311043 -0.032893464 0.025583046 -0.021567026 -0.03186787 0.007420838
0.025669433 0.013752157 0.021316227 -0.0068192505 -0.008381145 -0.04100983 -0.044101086 -0.040864136
0.031366292 -0.040496722 0.01701524 -0.009033691 0.03191067 -0.008504734 -0.01951785 -0.035974786
0.016707994 -0.019007264 -0.03260433 0.03066998 -0.015571391 -0.03612863 -0.031172872 0.023856577
-0.039599866 0.035756707 -0.005788563 -0.030407986 -0.001411695 -0.038962323 0.034241404 0.015955145
-0.00093979284 -0.0044394615 0.009750532 -0.042911317 -0.014645593 0.0014842215 0.019946238 0.030432543
-0.00651281 0.009245944 -0.018027818 -0.019980025 0.032398738 -0.040706955 0.0019316005 0.03319361
-0.019267287 0.025891602 0.025889654 0.02216571 0.016380025 0.027287506 -0.029113054 -0.025534827
0.009804651 -0.027828181 -0.022688324 0.037884664 0.03545857 -0.019753585 -0.0051123477 0.024535343
0.019597746 -0.024823248 -0.044491403 -0.029724127 0.002562939 0.039220296 -0.0050325766 0.009044651
0.021636114 -0.013364661 -0.0198125 -0.020778695 -0.023746992 -0.024591835 -0.028271722 0.007100235
0.03541522 0.0073376615 -0.04404485 -0.030139433 -0.021713715 -0.047642514 -0.04587348 -0.047301315
0.010895795 -0.043871302 0.0077171233 0.021625256 -0.030228833 -0.01867597 -0.022547882 -0.01288942
0.006948525 -0.008418743 -0.033228524 -0.0067277537 -0.046397265 0.0112182265 0.021424955 0.027052449
0.009532192 0.03199973 0.030557683 0.03266769 0.021322148 0.02451592 -0.013332781 0.022222918
0.02248 0.015891088 0.018158786 -0.04490447 -0.04496675 0.035687532 0.030211832 -0.013801733
0.017884452 -0.0001410521 0.022806067 -0.027181055 -0.0099569345 -0.025632828 -0.005558308 -0.033380188
-0.008514953 -0.0051697087 0.0007069123 -0.03247929 -0.045610536 0.027405763 0.0093535455 0.0027936918
-0.029220195 0.01212107 -0.03084495 -0.042190026 -0.031982448 0.004608774 -0.04539608 0.021937646
-0.03010585 -0.033375885 0.024029003 0.024931498 -0.043179628 -0.015075467 -0.025510326 -0.03431304
-0.009503229 0.014889205 -0.028247226 -0.010878991 0.025920894 -0.022157133 -0.047672812 0.0049434537
-0.007654901 -0.017873144 -0.046670765 -0.035638675 0.0054024877 -0.012083578 -0.01343868 0.034077547
0.01818963 -0.019324126 0.014275963 0.008521847 0.030486928 0.008175923 0.03081837 -0.020576032
00000000: 85bf bf3c 93f8 2a3c adec ae3c 4415 08bc
00000010: ca2c 473b 00e9 44bd 5570 ba3c f349 473c
00000020: b7fd 093d 2aaf 29bd 7731 91bc 4a42 c43c
00000030: aa8c ab3c 2921 b4bc fa96 90bb 9511 07bd
00000040: 5615 f23b af3d ce3c 60b3 50bc 9461 d2bc
00000050: e16c 2e3c be7a e43c aa61 1f3d 5465 f53c
00000060: 5948 1ebd 940c 03bd 9b25 65bc aeee 32bd
00000070: 6973 113d f3c9 a3bc 62f2 ca3c 361d 9a3a
00000080: f3a4 07bd e9c9 ae3c 8910 c53c 5ab5 a73c
00000090: 0d4d ddbc 9583 d83c 3c09 06bd b347 cdbc
000000a0: e6f3 cabc 2fa9 693c ff21 6fbc 76e8 e6bc
000000b0: 1da2 09bd 2b8f 00bd 4e16 0a3c a459 91bb
000000c0: 8b90 20bd 4b3a d63c 0dab aebc 422b f6bc
000000d0: 3ee1 0fbd 4444 bd3b 681a a13c 484c 86bc
000000e0: 1fb3 023c 6b21 4bb9 8378 9c3c 52bb 293b
000000f0: f510 0e3d 812e 0dbc 23d6 b3bb a084 47bd
00000100: 809c 2f3c e268 a63c 2489 753c 75ce 22bd
00000110: 2218 babb 6029 87bc 8a00 59bb 64b9 24bd
00000120: 8ce8 7bbc 8453 13bb 72ce febc 4cbb 06bd
00000130: 8993 d13c 55ad b0bc e287 02bd 802a f33b
00000140: b448 d23c ba50 613c 5e9f ae3c 0574 dfbb
00000150: 1251 09bc ecf9 27bd 57a3 34bd 2761 27bd
00000160: f179 003d e4df 25bd 8b63 8b3c 0c02 14bc
00000170: c3b4 023d 7157 0bbc e6e3 9fbc 4c5a 13bd
00000180: 34df 883c 1fb5 9bbc 1e8c 05bd 9c3f fb3c
00000190: 261f 7fbc 9dfb 13bd 405e ffbc de6e c33c
000001a0: 7833 22bd a075 123d fcad bdbb 2b1a f9bc
000001b0: a008 b9ba f596 1fbd b740 0c3d 5db4 823c
000001c0: 6e5c 76ba e778 91bb b2c0 1f3c c7c3 2fbd
000001d0: 12f4 6fbc 368a c23a 4b66 a33c ab4d f93c
000001e0: 6969 d5bb 4d7c 173c 13af 93bc 26ad a3bc
000001f0: 8ab4 043d 56bc 26bd c22d fd3a 06f6 073d
00000200: 6ed6 9dbc a01a d43c 8a16 d43c dd94 b53c
00000210: 672f 863c 0c8a df3c 807e eebc 6a2e d1bc
00000220: b0a3 203c edf7 e3bc dddc b9bc f32c 1b3d
00000230: 013d 113d 45d2 a1bc 7b85 a7bb 58fe c83c
00000240: 748b a03c 205a cbbc 9e3c 36bd 0380 f3bc
00000250: fbf6 273b 76a5 203d 50e8 a4bb 0430 143c
00000260: 383e b13c 73f7 5abc d34d a2bc 1538 aabc
00000270: 0d89 c2bc d174 c9bc 199a e7bc 17a9 e83b
00000280: 8d0f 113d c470 f03b 5f68 34bd f9e6 f6bc
00000290: f6e0 b1bc cc24 43bd d5e5 3bbd 06bf 41bd
000002a0: 4784 323c 65b2 33bd ecdf fc3b 7327 b13c
000002b0: 75a2 f7bc 59fe 98bc 56b6 b8bc 252e 53bc
000002c0: 74b0 e33b c4ee 09bc a21a 08bd 7d74 dcbb
000002d0: 0f0b 3ebd a7cc 373c 6383 af3c 199d dd3c
000002e0: e92c 1c3c 2612 033d 1b54 fa3c 8ece 053d
000002f0: c9ab ae3c 9cd5 c83c bd71 5abc d60c b63c
00000300: fa27 b83c 072e 823c bcc1 943c c0ed 37bd
00000310: 0e2f 38bd 172d 123d ce7e f73c aa20 62bc
00000320: 6a82 923c 63e7 13b9 cad3 ba3c ceaa debc
00000330: 6922 23bc f0fb d1bc 7822 b6bb aab9 08bd
00000340: 4d82 0bbc a966 a9bb 1550 393a 0109 05bd
00000350: 1dd2 3abd 0d82 e03c 9d3f 193c 5f16 373b
00000360: 315f efbc 7497 463c 8cae fcbc 73cf 2cbd
00000370: 0700 03bd 3305 973b 3df1 39bd 94b6 b33c
00000380: 8ba0 f6bc 27b5 08bd 79d8 c43c 243d cc3c
00000390: 1fdd 30bd 17ff 76bc 08fb d0bc d58b 0cbd
000003a0: 6eb3 1bbc daf1 733c ba66 e7bc cc3d 32bc
000003b0: 0e58 d43c e082 b5bc 9144 43bd b2fc a13b
000003c0: f7d5 fabb b36a 92bc d829 3fbd dcf9 11bd
000003d0: 5a07 b13b 33fa 45bc e92d 5cbc e694 0b3d
000003e0: 6b02 953c a14d 9ebc bbe5 693c 389f 0b3c
000003f0: b9bf f93c 4ef4 053c ce76 fc3c 118f a8bc

bias f4 [64]
-0.0035503649 0.016510045 -0.013694437 0.0033176371 -0.032828175 -0.036320243 -0.03747049 -0.03379069
-0.016711762 0.059254285 -0.035039116 0.030542977 0.042538665 0.02444461 0.030863533 -0.014336648
0.03272438 0.05833308 -0.03182565 -0.025332497 -0.044883005 -0.04769712 -0.006522866 0.013320207
-0.0037060028 -0.071809076 -0.045957733 0.017262751 0.019169467 0.02073577 -0.0012695848 0.029023405
-0.0011115145 -0.052079927 0.038809266 0.007902327 0.06259326 0.00048944214 0.011527916 0.006970489
-0.022691816 0.01623443 -0.01205046 0.061457008 0.0084757125 -0.01442737 -0.052839473 -0.005522224
0.01802216 -0.032536466 0.0334699 -0.03814732 0.035025705 -0.055158827 0.004852145 0.017738795
0.00889669 -0.036112957 -0.042191666 0.008516869 0.0017941131 -0.0072621275 -0.008062827 -0.009624872
00000000: 3dad 68bb 1340 873c a25e 60bc b76c 593b
00000010: d676 06bd 89c4 14bd a87a 19bd 1b68 0abd
00000020: 1be7 88bc 9fb4 723d 2d85 0fbd 4435 fa3c
00000030: 063d 2e3d 1040 c83c 85d5 fc3c 43e4 6abc
00000040: 000a 063d abee 6e3d 9d5b 02bd 1986 cfbc
00000050: 3ed7 37bd 0e5e 43bd c4bd d5bb ff3c 5a3c
00000060: 69e0 72bb a310 93bd 2d3e 3cbd 9d6a 8d3c
00000070: 4909 9d3c 10de a93c 3268 a6ba 7ec2 ed3c
00000080: 3db0 91ba c351 55bd 77f6 1e3d c378 013c
00000090: e530 803d e84d 003a 96df 3c3c b368 e43b
000000a0: 30e4 b9bc 11fe 843c 4b6f 45bc 58ba 7b3d
000000b0: b7dd 0a3c c760 6cbc 346e 58bd c6f3 b4bb
000000c0: 35a3 933c f544 05bd bc17 093d 5d40 1cbd
000000d0: 1d77 0f3d 39ee 61bd befe 9e3b f350 913c
000000e0: 6cc3 113c 2eeb 13bd 2bd1 2cbd 568a 0b3c
000000f0: 7228 eb3a 24f7 edbb f319 04bc a4b1 1dbc

weight f4 [64, 64, 3, 3]
0.016552065 -0.034696423 -0.024142941 0.036566127 0.036883853 0.028572569 0.030172918 0.04487503
-0.02962569 0.025121186 0.0025293287 0.017904893 0.0014416411 0.012060625 0.04080809 0.035780206
0.010861904 -0.020698635 -0.020058407 0.023969999 -0.039577592 -0.03508071 0.009461757 -0.008039369
-0.003914983 0.02434314 -0.007127306 -0.018204136 -0.035341367 0.023066232 -0.032594968 0.029403742
0.036455117 -0.010747239 -0.0020835102 -0.004290941 -0.004920153 -0.043574285 -0.03328811 -0.021848062
-0.032785717 0.016552024 -0.015997984 -0.008562848 0.008923934 -0.04237354 0.032841083 0.032249488
-0.03806637 -0.036707338 -0.026118878 -0.021802032 -0.009223052 -0.03965253 0.037705675 -0.012775962
0.047515936 -0.01836616 -0.020431058 -0.020160018 0.00021210259 -0.0005420117 0.006323514 -0.038621455
0.020598283 -0.03376534 0.027538627 -0.010830754 0.0065176035 -0.008480761 -0.004279521 0.020871252
0.004438268 -0.011068593 -0.013953881 -0.03096065 0.016856331 -0.03456248 -0.034759033 -0.028265618
-0.029392933 0.0573619 0.034419183 -0.0007837385 0.026212519 0.047859307 0.023390919 -0.037083134
-0.015806781 -0.0093084285 -0.016436324 -0.0413058 0.002006772 -0.021786325 -0.031505484 0.013505074
0.023320189 -0.0023215665 -0.031060034 0.01949801 0.028330147 0.04681899 -0.003951884 0.042363245
-0.028853698 -0.00598878 0.0043547037 0.016438525 0.05040216 -0.0061514787 0.043903258 0.0076302774
0.027877443 -0.0016460035 -0.018697023 -0.013730402 -0.0451289 0.011958858 0.008238312 0.0048797517
0.041331965 0.028453862 -0.013736554 0.0073849563 0.014982508 -0.01087089 0.0057981405 0.02947768
0.0140026035 0.009531453 -0.041937947 -0.008291689 0.010593361 0.0006987467 -0.016792115 0.022125984
0.031900223 0.012787941 -0.042306423 -0.047312103 0.014730511 0.033408683 -0.04029454 0.012938949
-0.040404 -0.035862096 -0.011209066 0.03268154 -0.00044174565 -0.009747401 -0.013848066 0.028381014
-0.014911733 -0.029276486 -0.05280657 -0.054270025 -0.016482117 0.00075897615 -0.011032996 0.012700803
0.010173736 -8.405863e-05 0.0006173452 -0.024448821 0.014216625 -0.038331695 0.0129809305 0.008459196
-0.016829316 0.02278265 -0.04484151 -0.0065351897 0.014168483 0.0079850685 -0.023375476 0.005519827
-0.04103041 0.0055568283 -0.009253028 0.004750312 -0.0043866974 -0.018631557 0.025196025 0.023554876
-0.01268216 0.026183836 0.0041232384 0.019701343 -0.0013601898 0.010474771 0.022021078 -0.0011015397
-0.016958177 0.033697374 0.020031428 -0.0236274 0.009936392 -0.033784367 -0.017103536 0.02326778
-0.0062187943 -0.020286243 -0.018167805 -0.037630215 -0.025605759 0.030041067 0.0019306793 0.03805978
-0.009739334 -0.017109431 0.03665146 0.022753477 -0.02497995 0.011820109 -0.0028382423 0.036829345
0.048996694 0.036853105 -0.012269493 0.014871998 -0.039771967 -0.04376039 -0.0014959505 -0.02581694
0.02438295 -0.033179604 -0.009033624 -0.017999994 -0.013231394 -0.010035107 -0.056745756 -0.06345646
-0.052563384 -0.031027801 -0.07511715 -0.08977162 -0.04145523 -0.025894709 -0.0804235 -0.09844241
0.009275889 -0.035515025 -0.031780798 -0.038770966 -0.041527852 -0.012103049 0.015875963 -0.012367563
-0.036832143 -0.003304541 -0.025738738 0.041567434 0.04477431 0.0326077 0.046149094 -0.019688837
00000000: 3298 873c d61d 0ebd 6bc7 c5bc 5dc6 153d
00000010: 8613 173d 0511 ea3c 322d f73c e1ce 373d
00000020: 93b1 f2bc f2ca cd3c 18c3 253b 48ad 923c
00000030: 73f5 bc3a ed99 453c 6226 273d 448e 123d
00000040: 21f6 313c 2f90 a9bc 8751 a4bc bb5c c43c
00000050: 1d1c 22bd cab0 0fbd 7c05 1b3c 8fb7 03bc
00000060: 4249 80bb 446b c73c 2d8c e9bb d720 95bc
00000070: 1cc2 10bd 65f5 bc3c 4d82 05bd 1ee0 f03c
00000080: f651 153d 3015 30bc 808b 08bb 069b 8cbb
00000090: 3c39 a1bb f37a 32bd 1d59 08bd b5fa b2bc
000000a0: 514a 06bd 1c98 873c 340e 83bc 304b 0cbc
000000b0: b135 123c e18f 2dbd 5f84 063d 0a18 043d
000000c0: 7beb 1bbd 6f5a 16bd 42f7 d5bc 2d9a b2bc
000000d0: 491c 17bc b16a 22bd 4471 1a3d 4552 51bc
000000e0: 12a0 423d a174 96bc 095f a7bc 9f26 a5bc
000000f0: db67 5e39 ca15 0eba 7b35 cf3b 8831 1ebd
00000100: bbbd a83c 864d 0abd b098 e13c 7a73 31bc
00000110: 9f91 d53b e4f2 0abc 393b 8cbb 30fa aa3c
00000120: e46e 913b 0b59 35bc d29e 64bc 30a1 fdbc
00000130: 4a16 8a3c 6391 0dbd 7d5f 0ebd 4c8d e7bc
00000140: 73c9 f0bc 50f4 6a3d 21fb 0c3d cd73 4dba
00000150: a3bb d63c 1f08 443d 509e bf3c 7ce4 17bd
00000160: 397d 81bc 6182 18bc 78a5 86bc 4530 29bd
00000170: 0c84 033b 3c79 b2bc e50b 01bd 6344 5d3c
00000180: fb09 bf3c 6c25 18bb 9d71 febc 4aba 9f3c
00000190: a014 e83c 45c5 3f3d ce7e 81bb 1585 2d3d
000001a0: 975e ecbc 873d c4bb e7b1 8e3b 16aa 863c
000001b0: 7f72 4e3d 5892 c9bb e7d3 333d 6807 fa3b
000001c0: 3c5f e43c b6be d7ba 802a 99bc 7bf5 60bc
000001d0: 15d9 38bd 16ef 433c fcf9 063c 53e6 9f3b
000001e0: b54b 293d 1318 e93c 490f 61bc 81fd f13b
000001f0: 3179 753c d11b 32bc 54fe bd3b 2d7b f13c
00000200: 2d6b 653c d029 1c3c 20c7 2bbd ddd9 07bc
00000210: c78f 2d3c 192c 373a 9e8f 89bc 8d41 b53c
00000220: cfa9 023d 8384 513c 8049 2dbd 56ca 41bd
00000230: 3e58 713c 8bd7 083d e30b 25bd e3fd 533c
00000240: aa7e 25bd 22e4 12bd 3ba6 37bc 14dd 053d
00000250: 199a e7b9 90b3 1fbc 00e3 62bc 4d7f e83c
00000260: 5750 74bc 3ed5 efbc b44b 58bd 3f4a 5ebd
00000270: 8105 87bc 07f6 463a bdc3 34bc 0717 503c
00000280: beaf 263c a248 b0b8 56d5 213a e548 c8bc
00000290: d9ec 683c b201 1dbd f8ad 543c 7198 0a3c
000002a0: a2dd 89bc aea2 ba3c bbab 37bd 2525 d6bb
000002b0: ed22 683c ced3 023c ed7d bfbc aadf b43b
000002c0: 810f 28bd 0e16 b63b 039a 17bc 81a8 9b3b
000002d0: 49be 8fbb 35a1 98bc e567 ce3c 28f6 c03c
000002e0: d6c8 4fbc 7c7f d63c 3b1c 873b b664 a13c
000002f0: 6548 b2ba 609e 2b3c 8c65 b43c 8a61 90ba
00000300: e0eb 8abc 4206 0a3d f318 a43c 408e c1bc
00000310: 40cc 223c 7a61 0abd b71c 8cbc 129c be3c
00000320: 07c7 cbbb 562f a6bc a6d4 94bc 2422 1abd
00000330: 2bc3 d1bc af18 f63c d90e fd3a 92e4 1b3d
00000340: ba91 1fbc 1429 8cbc d71f 163d 8065 ba3c
00000350: c1a2 ccbc 21a9 413c ce01 3abb 5eda 163d
00000360: c2b0 483d 48f3 163d fc05 49bc aea9 733c
00000370: eee7 22bd 183e 33bd c513 c4ba 0c7e d3bc
00000380: c1be c73c 56e7 07bd c401 14bc b974 93bc
00000390: 7dc8 58bc 4a6a 24bc 3d6e 68bd 76f5 81bd
000003a0: b44c 57bd 042e febc 05d7 99bd 2fda b7bd
000003b0: f6cc 29bd 2421 d4bc 13b5 a4bd 2d9c c9bd
000003c0: e6f9 173c 3478 11bd 952c 02bd 4ece 1ebd
000003d0: 1c19 2abd de4b 46bc 4f0e 823c 52a1 4abc
000003e0: 4ddd 16bd 0091 58bb 0cda d2bc 9d42 2a3d
000003f0: 4465 373d a78f 053d d506 3d3d 7c4a a1bc

bias f4 [64]
0.049047146 0.029173193 -0.04036097 0.002546452 -0.008893091 0.031212643 -0.05602944 -0.02232368
0.03595742 -0.049661115 0.01498708 0.015039287 0.021589931 0.04226627 0.03276351 0.032436907
0.008737528 -0.027740752 0.020465218 -0.012312608 0.041504227 -0.0150014255 0.040262256 -0.0151898265
-0.030701306 0.0204311 -0.033872698 0.054391745 -0.020596324 0.044385377 0.008045248 0.051212918
0.016297366 0.015570029 -0.055455867 -0.01694393 -0.0054728063 -0.03902946 0.028082531 0.01828334
-0.009013083 -0.05195247 -0.028081983 0.007751017 -0.03282992 0.014821308 -0.017687595 -0.021185093
-0.004180187 -0.022455303 -0.07246248 -0.020442346 -0.050719265 0.010298873 0.030373238 -0.03708765
-0.028101282 -0.044156168 -0.03000969 0.019556126 0.033776194 0.01770145 -0.06870847 0.026633456
00000000: a9e5 483d 9ffc ee3c 8b51 25bd 60e2 263b
00000010: 54b4 11bc a8b1 ff3c 207f 65bd 26e0 b6bc
00000020: 1648 133d 7469 4bbd 5f8c 753c 5767 763c
00000030: 5edd b03c 651f 2d3d 0833 063d 90dc 043d
00000040: d927 0f3c 9340 e3bc aca6 a73c d2ba 49bc
00000050: 5600 2a3d 8ac8 75bc 09ea 243d c0de 78bc
00000060: 4e81 fbbc 1f5f a73c 19be 0abd e1c9 5e3d
00000070: 9fb9 a8bc 71cd 353d 37d0 033c a3c4 513d
00000080: 0e82 853c 6f19 7f3c b125 63bd ffcd 8abc
00000090: 3a55 b3bb 5bdd 1fbd 560d e63c f1c6 953c
000000a0: 9cab 13bc 1dcc 54bd 300c e6bc 3efc fd3b
000000b0: ab78 06bd 12d5 723c 93e5 90bc 5c8c adbc
000000c0: f3f9 88bb 2ff4 b7bc 3567 94bd b576 a7bc
000000d0: 01bf 4fbd 9bbc 283c 4cd1 f83c 38e9 17bd
000000e0: a934 e6bc 19dd 34bd e2d6 f5bc 2b34 a03c
000000f0: e858 0a3d a202 913c 07b7 8cbd 682e da3c

weight f4 [64, 64, 3, 3]
-0.08514004 -0.081816144 -0.0868179 -0.018055199 0.005353964 -0.046520468 0.015985861 -0.014880017
0.0054665008 -0.025859961 0.03087391 -0.012715917 0.014517445 -0.022677453 0.004527133 0.02659789
0.0115143955 0.025464816 -0.035981156 0.014726231 -0.012979062 0.01222679 0.020226704 0.024978762
0.018130137 0.048128802 0.0016825214 -0.0034134658 -0.010391277 0.031530593 0.023824602 -0.021471132
-0.0127132125 0.037733797 0.01996603 0.01863144 -0.012256789 0.031371363 0.015637726 0.009707134
-0.019140117 -0.030154604 0.004596156 -0.020303084 0.033913143 0.0056203706 0.006104116 -0.017734163
0.013400515 0.035127744 0.017915677 0.03576179 -0.039597392 -0.03318037 0.031834453 -0.037023176
0.017707279 -0.039448366 -0.041075055 0.012615171 -0.030078962 -0.03328819 0.034841347 -0.038435973
-0.0040088375 -0.043711394 -0.020302126 0.0068798847 -0.042577676 0.03582844 -0.040698793 0.029519273
-0.004986966 -0.019911064 -0.018933382 -0.0013698497 -0.036067717 0.01703019 0.032714505 0.018182332
-0.028179128 -0.02456287 0.040585108 0.01923642 -0.017610587 -0.015714718 0.008146941 -0.030780073
-0.035367627 0.02760847 -0.022362063 0.04161543 0.04804776 0.056911483 -0.008931172 0.04993902
0.059297945 0.01646737 0.020274682 0.035750493 0.011626815 0.022739254 -0.01607253 0.011779289
0.013315133 -0.008227033 0.03401217 0.04279903 -0.07907703 -0.004406225 -0.060619764 -0.027791012
-0.05811224 -0.07198395 -0.07817033 -0.040845413 -0.015546445 0.0050099455 -0.028134217 0.022272356
-0.009557579 -0.02025966 -0.026122559 0.04354455 0.026967341 -0.020114647 0.0045978813 -0.03968134
-0.018378101 6.612238e-05 -0.013715392 -0.031516686 0.046377767 -0.0016548249 0.00681756 0.013688485
-0.0040464387 -0.043938402 0.037379723 0.0054877806 -0.0032580951 -0.0060713547 0.028293118 -0.011122107
-0.018193364 -0.030365568 0.029939566 0.045178067 0.0051777936 0.015332835 -0.013940212 0.0032622707
0.01895751 -0.00048227256 0.019119088 0.015012263 0.02846928 -0.030442854 0.025273088 -0.05025489
-0.08181227 -0.007856817 0.004029886 -0.05090425 -0.025624188 -0.040977843 -0.036086354 -0.00505074
0.0212339 -0.023901096 -0.0024886127 0.08543489 0.041009746 0.075531416 0.047265712 0.0072385133
0.051441163 -0.039985903 -0.006700809 -0.016092246 0.020490455 -0.04092192 -0.045957386 0.021644035
-0.047041524 -0.0075611626 0.0019307452 -0.008496309 0.0069264886 -0.04652479 0.019851744 0.028584415
-0.03961089 -0.033224802 0.024733257 0.037012164 -0.021465592 -0.031939425 -0.026756989 -0.025998885
-0.021347616 -0.03910504 0.000392654 -0.05308689 0.013479253 -0.0024336306 0.031964585 -0.018855337
-0.014815089 -0.04512158 -0.031107927 0.007460472 0.0048090257 -0.0077768383 0.045689303 0.015825706
-0.034536783 -0.09170689 -0.118534274 -0.0044758855 -0.0037761016 -0.056851722 -0.029351784 -0.009520989
-0.025330886 0.0042980965 -0.03898338 -0.02614788 -0.035526402 0.0259385 -0.0050836033 0.036922228
0.004070979 -0.002923284 -0.054876395 -0.0052154292 -0.048215974 -0.090628825 -0.06265271 -0.0076222746
-0.192881 -0.15656911 -0.08618164 0.011842155 -0.06687832 -0.052678984 -0.013338493 -0.009519361
0.00062249834 -0.023111632 -0.05685838 0.005594717 0.007140972 0.043914646 0.030777102 0.0001708599
00000000: e75d aebd 398f a7bd 95cd b1bd 7fe8 93bc
00000010: 4e70 af3b 3f8c 3ebd c8f4 823c 51cb 73bc
00000020: 5520 b33b 45d8 d3bc 48eb fc3c 6c56 50bc
00000030: 94da 6d3c 11c6 b9bc 5858 943b d1e3 d93c
00000040: e0a6 3c3c 979b d03c fa60 13bd 4a46 713c
00000050: 22a6 54bc e052 483c 79b2 a53c 43a0 cc3c
00000060: a785 943c b522 453d 0d88 dc3a 74b4 5fbb
00000070: 2d40 2abc 3926 013d d02b c33c 3ae4 afbc
00000080: 144b 50bc c18e 1a3d cd8f a33c f6a0 983c
00000090: b3d0 48bc 427f 003d b01a 803c ac0a 1f3c
000000a0: bccb 9cbc ca06 f7bc 5a9b 963b a752 a6bc
000000b0: 82e8 0a3d 162b b83b 0905 c83b 3c47 91bc
000000c0: d58d 5b3c 1ce2 0f3d e6c3 923c f47a 123d
000000d0: e030 22bd 24e8 07bd d864 023d 9da5 17bd
000000e0: db0e 913c 9c94 21bd 513e 28bd ddaf 4e3c
000000f0: 2868 f6bc 3259 08bd cdb5 0e3d 0a6f 1dbd
00000100: 915c 83bb b80a 33bd a550 a6bc a870 e13b
00000110: ee65 2ebd d8c0 123d c7b3 26bd 67d2 f13c
00000120: b469 a3bb 871c a3bc 2e1a 9bbc 878c b3ba
00000130: bebb 13bd e682 8b3c a5ff 053d 1df3 943c
00000140: ead7 e6bc 1238 c9bc 923c 263d b295 9d3c
00000150: 1444 90bc 27bc 80bc bf7a 053c 7e26 fcbc
00000160: a5dd 10bd 282b e23c a530 b7bc f174 2a3d
00000170: bacd 443d 041c 693d 0d54 12bc dc8c 4c3d
00000180: 67e2 723d 94e6 863c 1717 a63c 1c6f 123d
00000190: 667e 3e3c ac47 ba3c 8aaa 83bc ebfd 403c
000001a0: b727 5a3c adca 06bc 5850 0b3d 094e 2f3d
000001b0: 23f3 a1bd 1862 90bb 6e4c 78bd faa9 e3bc
000001c0: 1a07 6ebd 526c 93bd c417 a0bd 854d 27bd
000001d0: 84b6 7ebc 782a a43b bb79 e6bc 8474 b63c
000001e0: 6497 1cbc 96f7 a5bc fafe d5bc c55b 323d
000001f0: 9dea dc3c 79c7 a4bc d3a9 963b e788 22bd
00000200: ac8d 96bc 2fab 8a38 86b6 60bc a417 01bd
00000210: 9df6 3d3d b6e6 d8ba d765 df3b ab45 603c
00000220: fd97 84bb c1f8 33bd 7b1b 193d d7d2 b33b
00000230: c485 55bb 37f2 c6bb f8c6 e73c 7f39 36bc
00000240: 400a 95bc 36c1 f8bc d243 f53c a30c 393d
00000250: 7baa a93b 9236 7b3c 7d65 64bc d2cb 553b
00000260: c84c 9b3c 87d9 fcb9 a29f 9c3c fff5 753c
00000270: 6838 e93c 4b63 f9bc 8209 cf3c 12d8 4dbd
00000280: 318d a7bd e1b9 00bc 220d 843b fa80 50bd
00000290: d1e9 d1bc 62d8 27bd 49cf 13bd ae80 a5bb
000002a0: b7f2 ad3c 3bcc c3bc fe17 23bb 7df8 ae3d
000002b0: d6f9 273d 37b0 9a3d b199 413d 0d31 ed3b
000002c0: f8b3 523d 42c8 23bd 7692 dbbb e3d3 83bc
000002d0: 99db a73c be9d 27bd d03d 3cbd d54e b13c
000002e0: 9dae 40bd a1c3 f7bb 0f11 fd3a 1a34 0bbc
000002f0: 99f7 e23b c790 3ebd 20a0 a23c dd29 ea3c
00000300: 073f 22bd bb16 08bd 669d ca3c 119a 173d
00000310: 9cd8 afbc ead2 02bd 7931 dbbc 9dfb d4bc
00000320: 32e1 aebc 9b2c 20bd 21dd cd39 a471 59bd
00000330: 16d8 5c3c 8c7d 1fbb 4ced 023d 8276 9abc
00000340: fdba 72bc 68d1 38bd 0dd6 febc fa76 f43b
00000350: 0895 9d3b d9d4 febb b524 3b3d e9a4 813c
00000360: 7176 0dbd d2d0 bbbd 19c2 f2bd 73aa 92bb
00000370: 7978 77bb 5add 68bd 2773 f0bc ecfd 1bbc
00000380: b882 cfbc 0cd7 8c3b 09ad 1fbd 1434 d6bc
00000390: 2284 11bd fa7c d43c 5b94 a6bb c33b 173d
000003a0: d965 853b 9194 3fbb 12c6 60bd 31e6 aabb
000003b0: 1d7e 45bd 9b9b b9bd 1050 80bd 46c4 f9bb
000003c0: 9982 45be a753 20be 0080 b0bd 9905 423c
000003d0: 80f7 88bd ebc5 57bd b289 5abc 18f7 1bbc
000003e0: 282f 233a 9b54 bdbc 55e4 68bd e353 b73b
000003f0: d1fe e93b d8df 333d 4320 fc3c db28 3339

bias f4 [64]
0.03241486 0.00400677 -0.04226002 -0.00031319307 0.014820828 0.02454499 -0.007642157 -0.021545922
-0.042008948 0.019905305 0.012312739 0.004052037 -0.010535585 0.032198265 0.0044630743 0.019735826
0.030698864 0.0030197343 -0.069507085 -0.027201667 -0.045334477 -0.036845278 -0.03987037 0.0018525099
-0.038685124 -0.018354515 -0.0017944083 -0.02172189 -0.011226375 -0.034990877 0.030660369 0.0018322113
0.037320945 -0.008296622 -0.014079519 -0.05455355 -0.04105147 -0.028098477 -0.034745496 -0.058523167
0.015956381 -0.022628922 -0.040515706 -0.04326431 -0.00018985358 -0.025348602 -0.009128448 0.022278452
0.02883623 0.0201395 0.016954012 0.00884736 -0.0466745 0.006429611 -0.024490004 -0.032066632
-0.0077595767 -0.04775437 -0.02678776 0.03298573 -0.030170526 0.0023833436 -0.013249829 -0.010009293
00000000: 72c5 043d 394b 833b d818 2dbd 1034 a4b9
00000010: 0fd3 723c 9312 c93c 0f6b fabb 1381 b0bc
00000020: 9311 2cbd 7310 a33c 5fbb 493c f3c6 843b
00000030: 729d 2cbc 54e2 033d fb3e 923b 07ad a13c
00000040: 2f7c fb3c bce6 453b bb59 8ebd 08d6 debc
00000050: a5b0 39bd 13eb 16bd 1d4f 23bd ebcf f23a
00000060: 4b74 1ebd 355c 96bc 5a32 ebba 1bf2 b1bc
00000070: d4ee 37bc 9852 0fbd 742b fb3c cf26 f03a
00000080: d9dd 183d 8eee 07bc c8ad 66bc 8b73 5fbd
00000090: 9625 28bd c72e e6bc 4b51 0ebd fdb5 6fbd
000000a0: f5b6 823c 4a60 b9bc ccf3 25bd eb35 31bd
000000b0: 6f13 47b9 dfa7 cfbc 7c8f 15bc 4d81 b63c
000000c0: f539 ec3c 98fb a43c 24e3 8a3c 84f4 103c
000000d0: c32d 3fbd 7caf d23b 439f c8bc 4d58 03bd
000000e0: 0c44 febb 169a 43bd 0172 dbbc 0b1c 073d
000000f0: 2e28 f7bc df31 1c3b d015 59bc 05fe 23bc

weight f4 [2, 53824]
-0.009864001 -0.027848007 -0.025639646 -0.013823228 -4.609184e-07 0.0066504637 0.017759193 0.014165439
-0.004285974 -0.008244202 0.0037604768 0.011034737 0.025834821 0.041649062 0.0469717 0.031704895
0.024815856 0.027003793 0.022957606 0.02153974 0.0060971566 0.0037389088 -0.0028918001 -0.0043280087
-0.02017274 -0.0190496 -0.017506655 -0.011479284 -0.020307066 0.007666556 -0.005525643 -0.0023567632
-0.0009433044 0.0010939329 0.005042763 0.0066297217 0.0020660216 -0.004240739 -0.0071574813 0.010718486
0.019995702 0.021966247 0.03112906 0.043073606 0.021202188 0.013824149 0.0123272175 0.0027026702
-0.0011045655 0.0032587808 -0.0003570264 -0.006046842 -0.009971013 -0.014690402 -0.029886073 -0.025178345
-0.031016633 -0.028357876 0.009862312 0.0011277872 0.0060997824 0.0018969025 -0.0014642511 0.0006852287
0.0070025777 0.0031990213 -0.0030578263 0.0084868325 0.024860375 0.027103135 0.025448088 0.029517919
0.04210417 0.03853221 0.027115572 0.017744454 0.011468212 0.0087522 -0.001315995 -0.004920316
-0.0060724122 -0.012925741 -0.020914767 -0.030854868 -0.03784761 -0.030188859 -0.02752349 0.016201008
0.007988711 -2.886329e-05 0.0045244233 -0.0018063877 -0.008587426 0.0010515174 0.004149499 0.002189573
0.016617242 0.035058346 0.029507792 0.029153198 0.03883024 0.04121574 0.033558376 0.020602232
0.018896254 0.02056092 0.017080914 0.0058106654 0.0017690829 -0.008816038 -0.0066215135 -0.023488324
-0.032812152 -0.046087075 -0.024440957 -0.017049965 0.011527871 -0.0021861622 -0.009904332 -0.00867467
-0.011476845 -0.015988376 -0.0022795908 0.0010386899 0.0041315816 0.021587016 0.030659508 0.024734925
0.021700911 0.028926032 0.028300716 0.016134888 0.012101938 0.0049497243 0.006292425 -0.00088304916
0.004222151 0.014992247 0.0069735623 -0.0079399 -0.017625775 -0.03839143 -0.04199849 -0.02113482
-0.0014415785 0.006833598 -0.015809884 -0.011976915 -0.008877728 -0.0028251614 -0.010261291 -0.011365529
0.003480549 0.017428475 0.0228527 0.026882263 0.021046717 0.015425786 0.016357593 0.004655726
0.0010433722 0.0039446875 0.0152089 0.004806539 -0.0016633518 -0.008820044 0.012415226 0.0076013594
-0.012838076 -0.017270995 -0.023137996 -0.028084746 -0.0070809494 0.003849171 0.0036064927 -0.014100541
-0.01821735 -0.00920618 -0.0065520806 -0.014038479 -0.0071202093 0.012028446 0.022563454 0.031453338
0.030717049 0.03237783 0.029881183 0.02346366 0.012435367 0.014494884 0.021501545 0.023368714
0.019676609 0.018169107 0.0042028595 0.012440227 0.012234244 -0.0020718419 -0.0069340887 -0.012648975
-0.01429766 -0.0015659354 0.014468215 0.009308714 -0.0023996523 -0.007636555 0.0029368722 -0.0057794238
0.0023206314 0.0106244525 0.01892824 0.007904414 0.016439619 0.027111482 0.022092458 0.03233777
0.037296694 0.031085849 0.037003625 0.033060595 0.032823183 0.022774288 0.018163558 0.022294722
0.021953752 0.021096209 0.008639223 -0.0018660594 0.0050168675 0.00031918296 0.011123478 0.023288267
0.030239841 0.013356496 -0.0036357194 -0.0073112785 0.003943385 0.0120699145 0.032122534 0.019316617
0.0063641784 0.0010656903 0.014226631 0.02240842 0.017422859 0.028060343 0.033348028 0.028492713
0.0322397 0.03139945 0.011243046 0.005162597 -0.0006773683 0.021812972 0.022722216 0.014137495
00000000: 9e9c 21bc 8121 e4bc 3c0a d2bc d27a 62bc
00000010: 2474 f7b4 22ec d93b ba7b 913c 2816 683c
00000020: 5b71 8cbb b012 07bc 5572 763b 0bcb 343c
00000030: 8ca3 d33c 3598 2a3d 6665 403d fedc 013d
00000040: 9f4a cb3c 0f37 dd3c 9711 bc3c 1c74 b03c
00000050: a8ca c73b 7b08 753b 5b84 3dbb f8d1 8dbb
00000060: 4d41 a5bc e80d 9cbc 1e6a 8fbc 9b13 3cbc
00000070: 015b a6bc bc37 fb3b 7410 b5bb ed73 1abb
00000080: 1648 77ba 4c62 8f3a c33d a53b 233e d93b
00000090: 1766 073b e6f5 8abb 4e89 eabb 979c 2f3c
000000a0: 07ce a33c 8ff2 b33c 5f02 ff3c f36d 303d
000000b0: 36b0 ad3c af7e 623c 19f8 493c 481f 313b
000000c0: 11c7 90ba 4591 553b 462f bbb9 9624 c6bb
000000d0: 765d 23bc 03b0 70bc a3d3 f4bc d142 cebc
000000e0: 9816 febc c74e e8bc 8995 213c 42d2 933a
000000f0: afe0 c73b 7ca1 f83a 1dec bfba eba0 333a
00000100: e175 e53b aca6 513b d065 48bb 5b0c 0b3c
00000110: fca7 cb3c 6507 de3c 8278 d03c 90cf f13c
00000120: 6c75 2c3d f3d3 1d3d 7a21 de3c d15c 913c
00000130: 2be5 3b3c 6365 0f3c 777d acba 9a3a a1bb
00000140: 16fb c6bb 7dc6 53bc 7255 abbc 59c3 fcbc
00000150: 1806 1bbd a04e f7bc f178 e1bc fab7 843c
00000160: 15e3 023c 711f f2b7 9d41 943b 50c4 ecba
00000170: 46b2 0cbc 12d3 893a 85f8 873b f07e 0f3b
00000180: e220 883c 5799 0f3d 53ba f13c b0d2 ee3c
00000190: 750c 1f3d d6d1 283d 8274 093d 03c6 a83c
000001a0: 51cc 9a3c 606f a83c 46ed 8b3c 6567 be3b
000001b0: 92e0 e73a 2571 10bc 48f9 d8bb 966a c0bc
000001c0: 0966 06bd cdc5 3cbd 6738 c8bc 5eac 8bbc
000001d0: 65df 3c3c b745 0fbb c845 22bc 3420 0ebc
000001e0: 6009 3cbc 0efa 82bc 3065 15bb a624 883a
000001f0: 3862 873b 41d7 b03c a629 fb3c e6a0 ca3c
00000200: 1cc6 b13c 49f6 ec3c e7d6 e73c 502d 843c
00000210: 3547 463c 4c31 a23b b030 ce3b 6d7c 67ba
00000220: f859 8a3b 0ba2 753c 7b82 e43b 5b16 02bc
00000230: ee63 90bc 5540 1dbd 9c06 2cbd ee22 adbc
00000240: 59f3 bcba 60ec df3b bb83 81bc d33a 44bc
00000250: e473 11bc 5826 39bb f91e 28bc 7c36 3abc
00000260: ec19 643b 29c6 8e3c 9635 bb3c 3138 dc3c
00000270: 2a6a ac3c 70bc 7c3c 5c00 863c 0f8f 983b
00000280: c3c1 883a 7042 813b c02e 793c 2c80 9d3b
00000290: d304 daba f281 10bc 3b69 4b3c d314 f93b
000002a0: cb56 52bc e77b 8dbc e58b bdbc fb11 e6bc
000002b0: 4f07 e8bb 6042 7c3b e85a 6c3b f505 67bc
000002c0: 8d3c 95bc 85d5 16bc d6b2 d6bb a601 66bc
000002d0: a550 e9bb f612 453c fed6 b83c 37d5 003d
000002e0: 52a2 fb3c 9e9e 043d 62c9 f43c dd36 c03c
000002f0: b6bd 4b3c f37b 6d3c 0224 b03c bf6f bf3c
00000300: d730 a13c 61d7 943c 24b8 893b 18d2 4b3c
00000310: 2372 483c bdc7 07bb 5a37 e3bb a53d 4fbc
00000320: bc40 6abc 1340 cdba 180c 6d3c 9483 183c
00000330: 7c43 1dbb 113c fabb 8a78 403b 5261 bdbb
00000340: bc15 183b 2f12 2e3c 650f 9b3c 8481 013c
00000350: 61ac 863c e618 de3c 3efb b43c 9c74 043d
00000360: 6bc4 183d c0a7 fe3c 1d91 173d 8c6a 073d
00000370: 9a71 063d 2591 ba3c becb 943c 6ca3 b63c
00000380: 5bd8 b33c f5d1 ac3c 878b 0d3c 9096 f4ba
00000390: 8964 a43b 0358 a739 403f 363c 09c7 be3c
000003a0: 8bb9 f73c 34d5 5a3c 4045 6ebb 7393 efbb
000003b0: 8337 813b e4c0 453c eb92 033d e23d 9e3c
000003c0: 998a d03b a2ae 8b3a d116 693c dd91 b73c
000003d0: 62ba 8e3c cede e53c f197 083d 8d69 e93c
000003e0: c70d 043d b69c 003d c134 383c 012b a93b
000003f0: 6b91 31ba 1eb1 b23c f123 ba3c f4a0 673c

bias f4 [2]
-0.02504528 0.02923852
00000000: c22b cdbc 9f85 ef3c
